rl/default_model.pth (torch_old, 19970 bytes, 6 tensors)

fc1.weight f4 [64, 5]
1.2823119 0.086536795 -1.3165509 -2.2918365 1.1887162 0.16438322 -0.092656545 0.69603944
-0.3601676 -0.17874414 -8.338528 0.34914836 0.24091439 0.067142956 -0.423573 -0.1645107
0.06486634 1.1408273 -1.1823889 -1.004542 0.9588442 -0.005447258 -0.28496313 1.7268727
-1.3205129 -0.8728272 0.7373747 -1.7186782 -0.0949773 0.22613141 -1.2430757 -0.020363968
-1.0294294 -0.47162855 -2.546308 -0.5823314 0.13257998 0.3399943 2.4270513 1.0777425
-0.018557498 -2.359601 -0.06635023 -0.7055671 -0.07472863 -4.529961 0.36375237 0.25714204
-0.0031457932 0.10921238 -0.08353327 0.022058241 -0.08522802 0.43134594 3.1246488 -8.467773
0.3843307 0.69440836 -0.16094497 -0.36337692 -0.08292608 -0.0829693 -0.40398872 0.009102689
3.4649327 -0.31815043 -0.40259814 -0.6882933 0.70266646 2.893224 0.060769297 0.12868276
0.016629634 3.0698948 0.112586044 1.7268616 -0.12530737 -1.0438879 0.26791766 -1.6980212
-0.98096246 1.1450541 0.5699439 -0.5143299 0.09163815 0.98708415 -0.5165368 -1.0269725
0.455599 0.28905427 -0.005355849 0.24824923 0.33806604 -0.15700041 -0.71359503 -6.645677
-0.037914414 0.19439203 0.038586892 -0.17181773 1.5139861 0.25255132 -0.19933414 0.1310611
-1.5652854 -0.008038282 -0.33677816 -0.3449612 -0.024641305 0.0671469 -1.472155 -0.29836532
-0.70461774 0.7396976 0.44803277 -3.158157 -0.4766008 -0.42015478 0.1500454 2.01387
1.304086 -1.7904497 0.40468973 1.336631 -0.574627 -0.23376249 -1.1833104 -0.21092203
0.65784097 -0.11454453 -0.47647086 -0.10159155 -7.962722 0.11160542 0.7597174 -0.1693206
-0.5695428 -0.17086643 -0.53996813 3.0299978 1.7536242 0.05150918 1.7799133 -0.4924438
-1.9466985 -2.196162 0.25829503 -0.30851015 -1.140545 0.2451273 -1.5456854 -0.6395203
-1.0280061 0.5510115 0.07377184 -0.9270772 -0.54287505 -2.0614736 0.31139556 0.27983102
1.313027 0.21757095 -11.755276 -0.27753055 -0.5382377 0.14810877 -0.7183365 0.6870876
-1.4756202 0.04407033 1.264328 -12.698374 0.3568589 0.0017591084 -0.22863334 0.83727235
0.30560917 -0.62443984 1.0448116 -1.2456149 -0.44367674 -0.20746532 -0.1608763 -2.4620445
0.24674593 0.35720107 -0.38837564 -0.7028823 -0.6216625 -0.09996483 1.7326255 0.3672319
-0.018405134 0.097684555 -2.0231323 -3.7687168 -0.46075332 -0.8527196 -0.040882364 -0.037906807
0.14372014 1.077551 0.25266513 -1.9509231 0.10741779 0.34430972 -0.20431241 1.8260133
-0.45388302 1.2498351 -0.0033290684 -0.08840588 0.056110263 -0.10211885 -0.003142327 -0.14881039
-1.0151579 -1.0962209 0.8840594 -0.23392981 -0.4023958 0.9621442 0.65415424 -0.34176934
-0.567524 -0.2217293 -6.7266436 -0.57103914 0.38827825 1.3496277 -0.19264874 0.61128354
0.33386332 1.1721176 2.4213731 -0.2827347 0.20057714 -0.31613353 -0.18954036 0.13153565
0.89465344 2.0058653 0.45260757 -0.2701685 1.040775 -5.2674947 0.23379679 0.4558601
-0.20379178 0.23025265 -4.344362 0.27755266 0.17134961 -0.11764235 -0.52461046 -0.8626627
00000000: cc22 a43f 343a b13d bd84 a8bf 73ad 12c0
00000010: da27 983f 1354 283e b7c2 bdbd a42f 323f
00000020: e367 b8be b408 37be 9c6a 05c1 93c3 b23e
00000030: 43b2 763e 3f82 893d 8fde d8be 7e75 28be
00000040: a5d8 843d a106 923f 8558 97bf d594 80bf
00000050: d076 753f e97e b2bb b0e6 91be 2a0a dd3f
00000060: 9106 a9bf 9a71 5fbf 97c4 3c3f a6fd dbbf
00000070: 7583 c2bd fe8e 673e 1b1d 9fbf 56d2 a6bc
00000080: 58c4 83bf 4c79 f1be b6f6 22c0 ac13 15bf
00000090: 0cc3 073e bc13 ae3e cf54 1b40 77f3 893f
000000a0: e505 98bc b403 17c0 a1e2 87bd 0ca0 34bf
000000b0: 530b 99bd 71f5 90c0 c03d ba3e 1fa8 833e
000000c0: a729 4ebb beaa df3d 7e13 abbd 7cb3 b43c
000000d0: 078c aebd 60d9 dc3e 3ffa 4740 007c 07c1
000000e0: fec6 c43e bfc4 313f c2ce 24be 8a0c babe
000000f0: 26d5 a9bd cfeb a9bd 9cd7 cebe 7223 153c
00000100: 75c1 5d40 9de4 a2be 5821 cebe fd33 30bf
00000110: f3e1 333f 952a 3940 3ae9 783d 6ac5 033e
00000120: df3a 883c 2879 4440 8393 e63d cd09 dd3f
00000130: 9350 00be 1e9e 85bf 812c 893e c258 d9bf
00000140: 5b20 7bbf 2291 923f d8e7 113f 20ab 03bf
00000150: c8ac bb3d 8cb1 7c3f c13b 04bf d673 83bf
00000160: 4644 e93e ecfe 933e 1e80 afbb 0c35 7e3e
00000170: fe16 ad3e b7c4 20be 2aae 36bf 63a9 d4c0
00000180: 254c 1bbd b40e 473e 4a0d 1e3d fdf0 2fbe
00000190: 4cca c13f 684e 813e 401e 4cbe e234 063e
000001a0: 465b c8bf 00b3 03bc 306e acbe c19e b0be
000001b0: 90dc c9bc 5084 893d 936f bcbf 57c3 98be
000001c0: d461 34bf d25c 3d3f 8d64 e53e 3f1f 4ac0
000001d0: 0505 f4be 871e d7be 80a5 193e 3fe3 0040
000001e0: 4aec a63f 752d e5bf 7e33 cf3e b916 ab3f
000001f0: c11a 13bf 6f5f 6fbe b776 97bf f2fb 57be
00000200: 4468 283f 5396 eabd fdf3 f3be 3b0f d0bd
00000210: 9ece fec0 6291 e43d d77c 423f 6162 2dbe
00000220: 8fcd 11bf 9cf7 2ebe 5a3b 0abf 7ceb 4140
00000230: c276 e03f 4afb 523d 33d4 e33f 9821 fcbe
00000240: 6b2d f9bf eb8d 0cc0 3f3f 843e 0bf5 9dbe
00000250: 61fd 91bf a702 7b3e 05d9 c5bf 9ab7 23bf
00000260: b495 83bf 170f 0d3f b115 973d ee54 6dbf
00000270: dcf9 0abf 2fef 03c0 3d6f 9f3e 0346 8f3e
00000280: 4511 a83f ebca 5e3e 9c15 3cc1 7c18 8ebe
00000290: f2c9 09bf d3a9 173e e7e4 37bf f9e4 2f3f
000002a0: 1fe1 bcbf 1783 343d 80d5 a13f 8a2c 4bc1
000002b0: 36b6 b63e e291 e63a dc1e 6abe 7b57 563f
000002c0: ce78 9c3e 4adb 1fbf 63bc 853f 4f70 9fbf
000002d0: 9929 e3be ca71 54be c2bc 24be 2392 1dc0
000002e0: f7aa 7c3e 0fe3 b63e 2cd9 c6be 18f0 33bf
000002f0: 4625 1fbf 5cba ccbd acc6 dd3f d205 bc3e
00000300: 5dc6 96bc d70e c83d 007b 01c0 a832 71c0
00000310: dce7 ebbe d54b 5abf 4474 27bd 2b44 1bbd
00000320: 5f2b 133e 31ed 893f 535d 813e d9b7 f9bf
00000330: dcfd db3d 5d49 b03e 4637 51be ceba e93f
00000340: 5b63 e8be 99fa 9f3f 802c 5abb 240e b5bd
00000350: e0d3 653d b023 d1bd 80ef 4dbb c061 18be
00000360: b2f0 81bf f750 8cbf b851 623f 4c8b 6fbe
00000370: d306 cebe 154f 763f a776 273f 64fc aebe
00000380: 4149 11bf 010d 63be aa40 d7c0 9f2f 12bf
00000390: 68cc c63e 9ac0 ac3f b645 45be 147d 1c3f
000003a0: 22f0 aa3e f307 963f c7f7 1a40 9ac2 90be
000003b0: 1864 4d3e 41dc a1be de16 42be 48b1 063e
000003c0: 0208 653f 1960 0040 2ebc e73e 8753 8abe
000003d0: 1d38 853f 518f a8c0 6d68 6f3e 7f66 e93e
000003e0: cbae 50be 5ac7 6b3e 0305 8bc0 621b 8e3e
000003f0: 4676 2f3e 79ee f0bd df4c 06bf 76d7 5cbf

fc1.bias f4 [64]
-0.09165767 0.91970587 0.51213306 0.21559556 0.3146624 0.81898 0.60284793 0.12223233
0.8693562 -0.3349356 -0.031930104 0.22814399 0.5562898 0.66797423 -0.30408064 0.2131181
1.0928612 0.8825937 1.0530121 -0.283974 -0.14676341 -0.15694588 1.0108144 0.44159916
0.14113863 1.0308293 0.9280345 0.25110146 0.13334595 -0.20396052 0.7406459 0.72909236
0.39372355 0.6682652 0.36429128 0.78111637 -0.0031419846 0.49180192 -0.0035281877 0.5979628
0.04762049 -0.54481894 -0.35913745 0.88798344 0.9447374 0.4942262 0.57719845 -0.39938205
0.08913716 0.0842404 -0.16127849 0.7782693 -0.07112406 -0.09872639 -0.4320492 0.31783834
0.77227324 1.0439491 0.23656714 0.9040897 0.5701954 -0.3082927 0.49377444 0.6239869
00000000: 04b7 bbbd d871 6b3f 271b 033f 15c5 5c3e
00000010: 6e1b a13e aca8 513f 3e54 1a3f f254 fa3d
00000020: 218e 5e3f ae7c abbe 24c9 02bd 949e 693e
00000030: 0269 0e3f 5c00 2b3f 75b0 9bbe a23b 5a3e
00000040: e0e2 8b3f a9f1 613f 1ac9 863f 0a65 91be
00000050: 2649 16be 6cb6 20be 5e62 813f 4919 e23e
00000060: a586 103e 37f2 833f ab93 6d3f 5f90 803e
00000070: d78b 083e 07db 50be f89a 3d3f cca5 3a3f
00000080: 2296 c93e 6e13 2b3f 6384 ba3e 3ef7 473f
00000090: c1e9 4dbb 76cd fb3e 2b39 67bb 1714 193f
000000a0: b40d 433d 4179 0bbf dde0 b7be e252 633f
000000b0: 4fda 713f 370b fd3e 47c3 133f ce7b ccbe
000000c0: 8b8d b63d 3b86 ac3d 3026 25be a83c 473f
000000d0: 7ea9 91bd 1031 cabd 8e35 ddbe b5bb a23e
000000e0: b3b3 453f 20a0 853f a83e 723e 6c72 673f
000000f0: 53f8 113f 8ad8 9dbe 01d0 fc3e 9bbd 1f3f

fc2.weight f4 [64, 64]
-0.8527974 -0.12369283 0.37825862 0.11352601 -0.93961316 -0.49594554 -0.07248527 0.6259338
-0.0058211726 1.1112642 -0.11503084 0.70094275 -0.25565827 -0.3600918 -2.4587638 -1.5244496
0.26929843 0.15308407 -0.26130977 0.57126087 -0.8293268 -0.09489317 -0.119665526 0.82238007
-1.3299477 0.074671045 -1.3454508 -0.45486525 -0.4621367 0.24235138 -0.018055836 -0.11548949
-2.1087856 -0.009700464 -1.5910618 -0.6872937 0.8642021 -1.6215385 -0.9019374 0.9169128
-0.8786734 -1.1176873 -0.022367805 -0.13184811 -0.124160714 -1.9633242 -0.7211749 0.04646586
-0.92188096 0.74324816 0.8356005 -1.5584862 0.06956363 -1.3367915 0.06210129 -2.1178942
-1.8881383 -0.7633488 0.3122683 -0.1355279 -0.33267286 1.1284846 0.9169511 -3.2208238
0.52525944 -0.7017877 1.3376602 -0.938969 0.6622234 0.16766419 1.6146969 0.41767484
-1.3314215 1.3380399 0.45675012 0.9326335 -0.1626064 0.13327917 -0.77826536 0.6422863
0.074355185 -0.4056645 -0.04407628 2.0611696 -0.008484638 -0.038564578 0.82042617 0.9127592
0.39862964 -1.2526982 1.2072288 1.0925536 -0.8902426 -0.482169 0.8040898 0.3406713
0.13486797 -1.7054716 -0.7505524 0.56340283 -0.5168097 -0.38618764 0.38895142 2.1966474
-1.618292 -2.0549655 -0.027178958 0.6392063 0.031689417 -2.2691786 -0.24275559 -0.01359126
0.0109140435 3.0180185 0.13573281 -0.7987437 -1.2188004 0.055409193 0.0626449 -0.5917426
0.38876602 -0.47149566 1.1079149 0.5260256 -0.7895932 1.9647245 0.58671355 -2.488542
-0.10178885 0.114486024 0.7621923 0.6450398 -0.62605786 0.40329403 0.2620987 0.17334947
0.437496 1.2118531 1.4301158 1.4927427 0.06863513 -0.5515545 0.75123715 -0.08670821
-0.13666171 -0.80628717 0.071586795 3.806262 0.7426725 -0.10133374 -0.13683967 0.36615962
0.115074754 -0.6473468 0.3874441 0.25769132 0.1855514 0.044463433 1.7254229 0.73366207
1.2809548 0.34091425 -0.8212709 -0.1628636 -1.88119 -0.10438681 0.7552234 0.6611063
-0.015620923 0.33709338 0.023965418 0.57893556 -0.008328782 -0.23125057 -0.14052932 0.0059746206
-0.09371844 -0.109136336 -0.18656872 -0.45989442 0.23956777 0.64773476 -0.027841166 -0.063157514
-0.38049036 0.0549956 1.6775967 0.003644342 0.16283207 0.8318513 0.15234129 0.06169357
0.14377008 -0.19938992 -0.048928358 -0.2586238 -0.14142315 -0.104816206 -0.18801278 0.1303444
-0.028433796 0.16081768 0.2018801 -0.49354056 0.21130426 0.20974615 -0.016605902 -0.3478294
-0.2521833 0.17636064 -0.13341017 0.20488055 -0.38238025 0.11575197 0.07825312 0.19645925
-0.048379943 -0.09594588 -0.33873388 0.2663316 -0.12135801 -0.082034536 0.16339359 -0.023781978
-0.60775423 -0.026462242 -0.18422791 -0.26144853 0.17103118 -0.0019305163 -0.022366298 0.38599518
0.0076715588 0.24701679 0.10635713 -0.051812053 -0.2858774 0.16695194 0.083288334 -0.1219601
-0.030418802 -0.2427771 -0.34223494 -0.22214518 -0.3522257 -0.2089093 0.07850161 0.003963148
0.05433997 -0.030765904 0.058139935 -0.124744095 -0.04069512 0.07537401 0.077060066 0.092723206
00000000: ee50 5abf ab52 fdbd 1dab c13e 5380 e83d
00000010: 7d8a 70bf 93ec fdbe 2873 94bd 333d 203f
00000020: 89bf bebb e83d 8e3f 4a95 ebbd fc70 333f
00000030: a4e5 82be f45d b8be 635c 1dc0 2a21 c3bf
00000040: 7ce1 893e 12c2 1c3e 65ca 85be 273e 123f
00000050: c34e 54bf 5a57 c2bd 3313 f5bd 8087 523f
00000060: ba3b aabf 22ed 983d bb37 acbf 19e4 e8be
00000070: 2e9d ecbe f62a 783e d5e9 93bc c185 ecbd
00000080: 58f6 06c0 b2ee 1ebc eaa7 cbbf 7bf2 2fbf
00000090: 593c 5d3f 938e cfbf 5fe5 66bf ccba 6a3f
000000a0: bdf0 60bf 6110 8fbf b03c b7bc 3103 07be
000000b0: f947 febd 354e fbbf eb9e 38bf fc52 3e3d
000000c0: 6400 6cbf 8345 3e3f eae9 553f 7a7c c7bf
000000d0: 6077 8e3d fc1b abbf ec5d 7e3d 948b 07c0
000000e0: 84ae f1bf d46a 43bf a1e1 9f3e d3c7 0abe
000000f0: 1954 aabe 2f72 903f 4fbd 6a3f fa21 4ec0
00000100: 6777 063f 5ca8 33bf 7338 ab3f 4660 70bf
00000110: 7987 293f 29b0 2b3e 63ae ce3f 7ad9 d53e
00000120: 056c aabf e444 ab3f 27db e93e 12c1 6e3f
00000130: 4b82 26be 567a 083e 663c 47bf e06c 243f
00000140: 8847 983d 42b3 cfbe 5489 34bd 34ea 0340
00000150: 2703 0bbc e4f5 1dbd 7307 523f 96aa 693f
00000160: 2f19 cc3e 6a58 a0bf 7986 9a3f ccd8 8b3f
00000170: f0e6 63bf dbde f6be d4d8 4d3f 786c ae3e
00000180: d41a 0a3e e54c dabf 3424 40bf 2b3b 103f
00000190: a44d 04bf 63ba c5be a424 c73e df95 0c40
000001a0: 3124 cfbf 8e84 03c0 68a6 debc 06a3 233f
000001b0: c3cc 013d 393a 11c0 ec94 78be e0ad 5ebc
000001c0: d1d0 323c 3727 4140 8bfd 0a3e 787a 4cbf
000001d0: a701 9cbf c0f4 623d f84b 803d 717c 17bf
000001e0: 570c c73e e167 f1be 28d0 8d3f 9da9 063f
000001f0: c822 4abf 187c fb3f dc32 163f 4644 1fc0
00000200: ac76 d0bd a677 ea3d 091f 433f 5421 253f
00000210: 5445 20bf 8e7c ce3e cd31 863e 8682 313e
00000220: 7aff df3e 011e 9b3f 090e b73f 3112 bf3f
00000230: 9390 8c3d ad32 0dbf 1451 403f 1394 b1bd
00000240: 0cf1 0bbe d668 4ebf 199c 923d cc99 7340
00000250: c91f 3e3f 1088 cfbd b31f 0cbe 4679 bb3e
00000260: 50ac eb3d 85b8 25bf 135f c63e 1ef0 833e
00000270: 3001 3e3e 4a1f 363d a8da dc3f 47d1 3b3f
00000280: 54f6 a33f 508c ae3e cf3e 52bf b7c5 26be
00000290: d5ca f0bf c0c8 d5bd 5256 413f 433e 293f
000002a0: e6ee 7fbc 8197 ac3e 2053 c43c 1f35 143f
000002b0: 7275 08bc f3cc 6cbe ebe6 0fbe c0c6 c33b
000002c0: 74ef bfbd df82 dfbd df0b 3fbe 4877 ebbe
000002d0: 4151 753e f2d1 253f 2813 e4bc ba58 81bd
000002e0: a2cf c2be 1143 613d 7dbb d63f ead5 6e3b
000002f0: 73bd 263e 35f4 543f 5bff 1b3e 66b2 7c3d
00000300: 7738 133e df2c 4cbe 1a69 48bd 576a 84be
00000310: 3bd1 10be e1a9 d6bd 6c86 40be 0179 053e
00000320: feed e8bc 64ad 243e a8b9 4e3e 59b1 fcbe
00000330: 2560 583e b2c7 563e 1a09 88bc b216 b2be
00000340: 2b1e 81be e297 343e ad9c 08be 35cc 513e
00000350: 58c7 c3be 5e0f ed3d 2c43 a03d 9d2c 493e
00000360: 0c2a 46bd 467f c4bd 876e adbe 9e5c 883e
00000370: 8c8a f8bd b901 a8bd a650 273e 6cd2 c2bc
00000380: c895 1bbf 58c7 d8bc 3ea6 3cbe 95dc 85be
00000390: cc22 2f3e 6109 fdba 8739 b7bc 29a1 c53e
000003a0: b361 fb3b f8f1 7c3e c4d1 d93d e038 54bd
000003b0: 865e 92be 73f5 2a3e 1393 aa3d 38c6 f9bd
000003c0: da30 f9bc 8f9a 78be 6b39 afbe 077a 63be
000003d0: ed56 b4be 52ec 55be 74c5 a03d 4cdd 813b
000003e0: 9793 5e3d c708 fcbc 2424 6e3d d579 ffbd
000003f0: edaf 26bd b05d 9a3d abd1 9d3d aae5 bd3d

fc2.bias f4 [64]
-0.22157608 -0.066183165 -0.49090847 -0.12360235 0.9423099 -0.04280338 -0.052571736 -0.1490581
0.24850199 -0.14168756 0.21169311 0.15502906 0.0063688536 0.016761031 -0.093899645 0.32070333
-0.2567091 0.14058422 0.03584806 0.41446996 -0.0008588896 -0.041273486 0.6846572 0.30205962
0.09070007 0.0050702277 0.010056688 -0.15149191 0.3390884 -0.0005107339 1.3728852 0.34917384
0.1036405 0.18142566 0.98491573 -0.12891494 -0.08511142 0.12032446 0.32199946 -0.31968483
0.96104276 0.15038392 0.51829 1.2232996 -0.17100857 0.18229955 -0.4246747 0.016484495
-0.10813621 -0.103286184 -0.123900965 -0.14135985 -0.17283149 0.70826924 -0.11103465 -0.30520746
0.41884738 -0.23952287 0.4151025 -0.54773587 0.2833714 0.046365116 -0.012573727 0.24287325
00000000: d7e4 62be 0a8b 87bd 5b58 fbbe 3b23 fdbd
00000010: 393b 713f 9952 2fbd 7655 57bd b0a2 18be
00000020: 4e77 7e3e 8b16 11be 14c6 583e f0bf 1e3e
00000030: d1b1 d03b 6e4e 893c 754e c0bd 3a33 a43e
00000040: 606f 83be 4ff5 0f3e 6ad5 123d 6835 d43e
00000050: 1b27 61ba 630e 29bd b245 2f3f 8fa7 9a3e
00000060: f5c0 b93d 2724 a63b cfc4 243c b220 1bbe
00000070: ff9c ad3e c6e2 05ba b4ba af3f eac6 b23e
00000080: 7841 d43d a6c7 393e 7023 7c3f 4702 04be
00000090: e54e aebd ac6c f63d 1ddd a43e bbad a3be
000000a0: e606 763f 3efe 193e a7ae 043f 1595 9c3f
000000b0: df1c 2fbe bcac 3a3e f66e d9be 7e0a 873c
000000c0: 8476 ddbd b587 d3bd cabf fdbd a3c0 10be
000000d0: bdfa 30be 2251 353f 2266 e3bd 2744 9cbe
000000e0: 2a73 d63e 7c45 75be 5188 d43e 6b38 0cbf
000000f0: 0e16 913e 59e9 3d3d 0902 4ebc c4b3 783e

fc3.weight f4 [3, 64]
-1.7232916 1.948867 -0.9908837 -0.12732281 0.09871214 -0.29356855 0.03679925 -0.46077213
-0.77839327 -0.047423083 0.7884687 -0.17066461 -1.4330361 -1.0815601 -0.29287437 -1.2505177
-1.0182729 3.5555463 0.10200509 -0.022171762 -1.3159274 -0.04785669 0.7475413 -0.53606516
0.33439484 -2.3577256 -1.3304945 -0.6991877 2.3174136 3.0172858 1.0872113 0.8049878
4.3115425 -2.016147 1.1464385 -1.2487199 0.058610592 7.799762 -0.90979314 -1.0665798
0.24806091 1.3781677 0.62662333 2.8518584 -1.5752509 3.3782945 2.0067365 -0.3987173
-0.07795526 -0.35682508 0.02965486 1.3301858 -2.9299028 -0.080448575 -0.4999589 -1.7859561
-0.14740942 -1.1426488 -4.854825 -0.97021544 -0.34144813 -1.3303084 -0.090920016 0.5100922
0.3669438 1.0652043 0.18694697 0.5838743 1.7927804 -1.615511 -0.0975792 -0.44480604
-1.2527231 -0.025383074 1.2717874 1.5733985 1.5212271 -0.617311 -0.9522631 -2.2018435
-0.22458106 3.3946557 -0.06175657 -0.40043017 -0.73794204 0.07722362 1.1747408 -1.4130892
-0.008066574 -0.5875428 -0.2552804 -0.914092 3.1078475 -5.0418983 0.6495252 -2.9088912
-3.1587706 1.9859823 0.73607355 -0.865954 0.006805362 -2.7879755 -0.92800933 -0.5953779
1.9061679 0.86110884 1.087579 -0.6518462 -0.28825718 1.628977 0.7845797 -0.7714165
-0.09228277 -0.5827402 -0.02459012 -0.75609255 -0.68744075 0.3270823 -0.69945765 -0.8365272
-2.2663417 -3.0487123 -1.0886685 -0.44328308 -0.022597862 -1.6634561 -0.04916376 -1.8535337
-0.24528918 -1.4799001 -0.5335503 0.4874604 1.2388422 -0.026628032 0.003974148 -0.45048988
0.53121054 -0.08534229 -0.22557327 -2.5436337 0.050704505 -0.9132503 -0.15315278 1.5535681
0.16050176 -6.9530234 -5.697198e-06 1.3181143 -0.6060006 -0.017842786 -0.3437217 -3.3077176
-6.3008223 -1.398754 -0.31995815 -0.65679556 -1.8995124 0.38859838 2.4572299 0.19554944
-0.6273768 1.8852661 -0.12465694 -1.5014342 -0.017623419 2.0368795 -3.186326 0.08474953
1.0874779 -2.115884 -0.52112263 0.13492553 -1.1224308 2.7362273 -1.6825484 0.21768685
0.041632473 -1.0898135 0.0603552 -2.0993395 -0.35154164 1.4991869 -0.8915027 -0.92070687
0.24367577 -0.17307961 -5.828719 -0.4539504 -3.8669658 -0.4786485 0.0022589944 -1.0776565
00000000: d294 dcbf 7974 f93f 8eaa 7dbf e960 02be
00000010: 9729 ca3d 9e4e 96be cfba 163d 53ea ebbe
00000020: c844 47bf b53e 42bd 16d9 493f b4c2 2ebe
00000030: ba6d b7bf 9070 8abf a1f3 95be f710 a0bf
00000040: c456 82bf 128e 6340 0be8 d03d 8ea1 b5bc
00000050: 4f70 a8bf 6005 44bd de5e 3f3f 913b 09bf
00000060: cd35 ab3e fae4 16c0 a54d aabf f7fd 32bf
00000070: 8150 1440 361b 4140 bd29 8b3f ae13 4e3f
00000080: 28f8 8940 8d08 01c0 7fbe 923f 0ed6 9fbf
00000090: a911 703d a697 f940 34e8 68bf b085 88bf
000000a0: ae03 7e3e cd67 b03f 636a 203f d984 3640
000000b0: d2a1 c9bf fa35 5840 5f6e 0040 ad24 ccbe
000000c0: 02a7 9fbd c7b1 b6be c0ee f23c 8743 aa3f
000000d0: 8783 3bc0 39c2 a4bd 9dfa ffbe 369a e4bf
000000e0: 7ff2 16be 5142 92bf ba5a 9bc0 0a60 78bf
000000f0: 4ad2 aebe 8c47 aabf 4634 babd 6795 023f
00000100: 0fe0 bb3e 9d58 883f 076f 3f3e c978 153f
00000110: d479 e53f 10c9 cebf 9bd7 c7bd 9ebd e3be
00000120: 3b59 a0bf 2af0 cfbc eec9 a23f 1f65 c93f
00000130: 92b7 c23f 1808 1ebf 84c7 73bf 01eb 0cc0
00000140: 94f8 65be 0a42 5940 75f4 7cbd 2f05 cdbe
00000150: c5e9 3cbf 6b27 9e3d e85d 963f 1be0 b4bf
00000160: aa29 04bc 3469 16bf 1db4 82be ef01 6abf
00000170: f9e6 4640 3b57 a1c0 4947 263f 462b 3ac0
00000180: 4c29 4ac0 ab34 fe3f 516f 3c3f 29af 5dbf
00000190: 84ff de3b 316e 32c0 0592 6dbf b06a 18bf
000001a0: 4ffd f33f a171 5c3f ca35 8b3f 64df 26bf
000001b0: 7296 93be 5182 d03f 37da 483f 8d7b 45bf
000001c0: c0fe bcbd 762e 15bf 3871 c9bc 488f 41bf
000001d0: 1efc 2fbf 5577 a73e a80f 33bf a626 56bf
000001e0: be0b 11c0 1a1e 43c0 7d59 8bbf 00f6 e2be
000001f0: 271f b9bc 21ec d4bf f05f 49bd 9840 edbf
00000200: 162d 7bbe 5e6d bdbf c196 08bf 6994 f93e
00000210: 6292 9e3f 0823 dabc 9239 823b 9ca6 e6be
00000220: 6afd 073f f0c7 aebd aefc 66be e5ca 22c0
00000230: 87af 4f3d c6ca 69bf 15d4 1cbe 52db c63f
00000240: 935a 243e 2b7f dec0 8f2a bfb6 f8b7 a83f
00000250: db22 1bbf 092b 92bc 4afc afbe a5b1 53c0
00000260: 56a0 c9c0 5f0a b3bf 8ed1 a3be c123 28bf
00000270: 3923 f3bf 5ef6 c63e 4143 1d40 1d3e 483e
00000280: c49b 20bf 6650 f13f 234c ffbd ff2e c0bf
00000290: fd5e 90bc 3c5c 0240 c4ec 4bc0 2991 ad3d
000002a0: 7a32 8b3f a56a 07c0 4b68 05bf eb29 0a3e
000002b0: d0ab 8fbf 591e 2f40 bf5d d7bf 4de9 5e3e
000002c0: d086 2a3d 027f 8bbf 0437 773d 945b 06c0
000002d0: 44fd b3be 5be5 bf3f 8539 64bf 72b3 6bbf
000002e0: 2486 793e c83b 31be de84 bac0 306c e8be
000002f0: 5e7c 77c0 6b11 f5be a30b 143b a6f0 89bf

fc3.bias f4 [3]
0.79902416 0.5352526 0.9421282
00000000: d98c 4c3f 5006 093f 502f 713f
